E:\Users\lucas\AppData\Local\Programs\Python\Python313\python.exe E:\Projects\Python\RP\Hybrid-Coding-SNN-main\CIFAR10\Hybrid_coding\cifar10_main_res20.py
GPU is available
Epochs : 15
['irish_wolfhound', 'scottish_deerhound']
 {'irish_wolfhound': 0, 'scottish_deerhound': 1}
145
36
Accuracy of pre-trained model 0.6944444444444444
ResNet20(
  (conv1): Sequential(
    (0): Conv2d(3, 64, kernel_size=(3, 3), stride=(1, 1), padding=(1, 1))
    (1): StraightThrough()
    (2): ScaledNeuron(
      (neuron): BurstNode()
    )
  )
  (conv2): Sequential(
    (0): Conv2d(64, 64, kernel_size=(3, 3), stride=(1, 1), padding=(1, 1))
    (1): StraightThrough()
    (2): ScaledNeuron(
      (neuron): BurstNode()
    )
  )
  (conv3): Sequential(
    (0): Conv2d(64, 64, kernel_size=(3, 3), stride=(2, 2), padding=(1, 1))
    (1): StraightThrough()
    (2): ScaledNeuron(
      (neuron): BurstNode()
    )
  )
  (layer4): BasicBlock(
    (conv1): Sequential(
      (0): Conv2d(64, 64, kernel_size=(3, 3), stride=(1, 1), padding=(1, 1))
      (1): StraightThrough()
      (2): ScaledNeuron(
        (neuron): BurstNode()
      )
    )
    (conv2): Sequential(
      (0): Conv2d(64, 64, kernel_size=(3, 3), stride=(1, 1), padding=(1, 1))
      (1): StraightThrough()
      (2): ScaledNeuron(
        (neuron): BurstNode()
      )
    )
    (shortcut): Sequential()
  )
  (layer5): BasicBlock(
    (conv1): Sequential(
      (0): Conv2d(64, 64, kernel_size=(3, 3), stride=(1, 1), padding=(1, 1))
      (1): StraightThrough()
      (2): ScaledNeuron(
        (neuron): BurstNode()
      )
    )
    (conv2): Sequential(
      (0): Conv2d(64, 64, kernel_size=(3, 3), stride=(1, 1), padding=(1, 1))
      (1): StraightThrough()
      (2): ScaledNeuron(
        (neuron): BurstNode()
      )
    )
    (shortcut): Sequential()
  )
  (layer6): BasicBlock(
    (conv1): Sequential(
      (0): Conv2d(64, 128, kernel_size=(3, 3), stride=(2, 2), padding=(1, 1))
      (1): StraightThrough()
      (2): ScaledNeuron(
        (neuron): BurstNode()
      )
    )
    (conv2): Sequential(
      (0): Conv2d(128, 128, kernel_size=(3, 3), stride=(1, 1), padding=(1, 1))
      (1): StraightThrough()
      (2): ScaledNeuron(
        (neuron): BurstNode()
      )
    )
    (shortcut): Sequential(
      (0): Conv2d(64, 128, kernel_size=(1, 1), stride=(2, 2))
      (1): StraightThrough()
      (2): ScaledNeuron(
        (neuron): BurstNode()
      )
    )
  )
  (layer7): BasicBlock(
    (conv1): Sequential(
      (0): Conv2d(128, 128, kernel_size=(3, 3), stride=(1, 1), padding=(1, 1))
      (1): StraightThrough()
      (2): ScaledNeuron(
        (neuron): BurstNode()
      )
    )
    (conv2): Sequential(
      (0): Conv2d(128, 128, kernel_size=(3, 3), stride=(1, 1), padding=(1, 1))
      (1): StraightThrough()
      (2): ScaledNeuron(
        (neuron): BurstNode()
      )
    )
    (shortcut): Sequential()
  )
  (layer8): BasicBlock(
    (conv1): Sequential(
      (0): Conv2d(128, 256, kernel_size=(3, 3), stride=(2, 2), padding=(1, 1))
      (1): StraightThrough()
      (2): ScaledNeuron(
        (neuron): BurstNode()
      )
    )
    (conv2): Sequential(
      (0): Conv2d(256, 256, kernel_size=(3, 3), stride=(1, 1), padding=(1, 1))
      (1): StraightThrough()
      (2): ScaledNeuron(
        (neuron): BurstNode()
      )
    )
    (shortcut): Sequential(
      (0): Conv2d(128, 256, kernel_size=(1, 1), stride=(2, 2))
      (1): StraightThrough()
      (2): ScaledNeuron(
        (neuron): BurstNode()
      )
    )
  )
  (layer9): BasicBlock(
    (conv1): Sequential(
      (0): Conv2d(256, 256, kernel_size=(3, 3), stride=(1, 1), padding=(1, 1))
      (1): StraightThrough()
      (2): ScaledNeuron(
        (neuron): BurstNode()
      )
    )
    (conv2): Sequential(
      (0): Conv2d(256, 256, kernel_size=(3, 3), stride=(1, 1), padding=(1, 1))
      (1): StraightThrough()
      (2): ScaledNeuron(
        (neuron): BurstNode()
      )
    )
    (shortcut): Sequential()
  )
  (layer10): BasicBlock(
    (conv1): Sequential(
      (0): Conv2d(256, 512, kernel_size=(3, 3), stride=(2, 2), padding=(1, 1))
      (1): StraightThrough()
      (2): ScaledNeuron(
        (neuron): BurstNode()
      )
    )
    (conv2): Sequential(
      (0): Conv2d(512, 512, kernel_size=(3, 3), stride=(1, 1), padding=(1, 1))
      (1): StraightThrough()
      (2): ScaledNeuron(
        (neuron): BurstNode()
      )
    )
    (shortcut): Sequential(
      (0): Conv2d(256, 512, kernel_size=(1, 1), stride=(2, 2))
      (1): StraightThrough()
      (2): ScaledNeuron(
        (neuron): BurstNode()
      )
    )
  )
  (layer11): BasicBlock(
    (conv1): Sequential(
      (0): Conv2d(512, 512, kernel_size=(3, 3), stride=(1, 1), padding=(1, 1))
      (1): StraightThrough()
      (2): ScaledNeuron(
        (neuron): BurstNode()
      )
    )
    (conv2): Sequential(
      (0): Conv2d(512, 512, kernel_size=(3, 3), stride=(1, 1), padding=(1, 1))
      (1): StraightThrough()
      (2): ScaledNeuron(
        (neuron): BurstNode()
      )
    )
    (shortcut): Sequential()
  )
  (pool12): AvgPool2d(kernel_size=2, stride=2, padding=0)
  (fc13): Sequential(
    (0): Linear(in_features=2048, out_features=16384, bias=True)
    (1): ScaledNeuron(
      (neuron): BurstNode()
    )
  )
  (linear): Linear(in_features=16384, out_features=2, bias=False)
)
Accuracy of BN folded ANN model 0.6944444444444444
Accuracy of converted SNN model tensor([… device='cuda:0')
Resume the LTL-finetuned Model
Stage1 Test Accuracy: tensor([… device='cuda:0')
------ Stage 2 - Training Output Layer ------
Train loss 0:  1.8441270112991333
Train loss:  0.9220635056495666 0.0
Train correct / total:  5 145
Stage2, Epoch 1 takes 0m 2s
…
