…
22, '31_Nidoqueen': 23, '32_Nidoran_male': 24, '33_Nidorino': 25, '34_Nidoking': 26, '35_Clefairy': 27, '36_Clefable': 28, '37_Vulpix': 29, '38_Ninetales': 30, '3_Venusaur': 31, '4_Charmander': 32, '5_Charmeleon': 33, '6_Charizard': 34, '7_Squirtle': 35, '8_Wartortle': 36, '9_Blastoise': 37}
5066
1267
Accuracy of pre-trained model 0.4151539068666141
E:\Users\lucas\AppData\Local\Programs\Python\Python313\Lib\site-packages\PIL\Image.py:1054: UserWarning: Palette images with Transparency expressed in bytes should be converted to RGBA images
  warnings.warn(
ResNet20(
  (conv1): Sequential(
    (0): Conv2d(3, 64, kernel_size=(3, 3), stride=(1, 1), padding=(1, 1))
    (1): StraightThrough()
    (2): ScaledNeuron(
      (neuron): BurstNode()
    )
  )
  (conv2): Sequential(
    (0): Conv2d(64, 64, kernel_size=(3, 3), stride=(1, 1), padding=(1, 1))
    (1): StraightThrough()
    (2): ScaledNeuron(
      (neuron): BurstNode()
    )
  )
  (conv3): Sequential(
    (0): Conv2d(64, 64, kernel_size=(3, 3), stride=(2, 2), padding=(1, 1))
    (1): StraightThrough()
    (2): ScaledNeuron(
      (neuron): BurstNode()
    )
  )
  (layer4): BasicBlock(
    (conv1): Sequential(
      (0): Conv2d(64, 64, kernel_size=(3, 3), stride=(1, 1), padding=(1, 1))
      (1): StraightThrough()
      (2): ScaledNeuron(
        (neuron): BurstNode()
      )
    )
    (conv2): Sequential(
      (0): Conv2d(64, 64, kernel_size=(3, 3), stride=(1, 1), padding=(1, 1))
      (1): StraightThrough()
      (2): ScaledNeuron(
        (neuron): BurstNode()
      )
    )
    (shortcut): Sequential()
  )
  (layer5): BasicBlock(
    (conv1): Sequential(
      (0): Conv2d(64, 64, kernel_size=(3, 3), stride=(1, 1), padding=(1, 1))
      (1): StraightThrough()
      (2): ScaledNeuron(
        (neuron): BurstNode()
      )
    )
    (conv2): Sequential(
      (0): Conv2d(64, 64, kernel_size=(3, 3), stride=(1, 1), padding=(1, 1))
      (1): StraightThrough()
      (2): ScaledNeuron(
        (neuron): BurstNode()
      )
    )
    (shortcut): Sequential()
  )
  (layer6): BasicBlock(
    (conv1): Sequential(
      (0): Conv2d(64, 128, kernel_size=(3, 3), stride=(2, 2), padding=(1, 1))
      (1): StraightThrough()
      (2): ScaledNeuron(
        (neuron): BurstNode()
      )
    )
    (conv2): Sequential(
      (0): Conv2d(128, 128, kernel_size=(3, 3), stride=(1, 1), padding=(1, 1))
      (1): StraightThrough()
      (2): ScaledNeuron(
        (neuron): BurstNode()
      )
    )
    (shortcut): Sequential(
      (0): Conv2d(64, 128, kernel_size=(1, 1), stride=(2, 2))
      (1): StraightThrough()
      (2): ScaledNeuron(
        (neuron): BurstNode()
      )
    )
  )
  (layer7): BasicBlock(
    (conv1): Sequential(
      (0): Conv2d(128, 128, kernel_size=(3, 3), stride=(1, 1), padding=(1, 1))
      (1): StraightThrough()
      (2): ScaledNeuron(
        (neuron): BurstNode()
      )
    )
    (conv2): Sequential(
      (0): Conv2d(128, 128, kernel_size=(3, 3), stride=(1, 1), padding=(1, 1))
      (1): StraightThrough()
      (2): ScaledNeuron(
        (neuron): BurstNode()
      )
    )
    (shortcut): Sequential()
  )
  (layer8): BasicBlock(
    (conv1): Sequential(
      (0): Conv2d(128, 256, kernel_size=(3, 3), stride=(2, 2), padding=(1, 1))
      (1): StraightThrough()
      (2): ScaledNeuron(
        (neuron): BurstNode()
      )
    )
    (conv2): Sequential(
      (0): Conv2d(256, 256, kernel_size=(3, 3), stride=(1, 1), padding=(1, 1))
      (1): StraightThrough()
      (2): ScaledNeuron(
        (neuron): BurstNode()
      )
    )
    (shortcut): Sequential(
      (0): Conv2d(128, 256, kernel_size=(1, 1), stride=(2, 2))
      (1): StraightThrough()
      (2): ScaledNeuron(
        (neuron): BurstNode()
      )
    )
  )
  (layer9): BasicBlock(
    (conv1): Sequential(
      (0): Conv2d(256, 256, kernel_size=(3, 3), stride=(1, 1), padding=(1, 1))
      (1): StraightThrough()
      (2): ScaledNeuron(
        (neuron): BurstNode()
      )
    )
    (conv2): Sequential(
      (0): Conv2d(256, 256, kernel_size=(3, 3), stride=(1, 1), padding=(1, 1))
      (1): StraightThrough()
      (2): ScaledNeuron(
        (neuron): BurstNode()
      )
    )
    (shortcut): Sequential()
  )
  (layer10): BasicBlock(
    (conv1): Sequential(
      (0): Conv2d(256, 512, kernel_size=(3, 3), stride=(2, 2), padding=(1, 1))
      (1): StraightThrough()
      (2): ScaledNeuron(
        (neuron): BurstNode()
      )
    )
    (conv2): Sequential(
      (0): Conv2d(512, 512, kernel_size=(3, 3), stride=(1, 1), padding=(1, 1))
      (1): StraightThrough()
      (2): ScaledNeuron(
        (neuron): BurstNode()
      )
    )
    (shortcut): Sequential(
      (0): Conv2d(256, 512, kernel_size=(1, 1), stride=(2, 2))
      (1): StraightThrough()
      (2): ScaledNeuron(
        (neuron): BurstNode()
      )
    )
  )
  (layer11): BasicBlock(
    (conv1): Sequential(
      (0): Conv2d(512, 512, kernel_size=(3, 3), stride=(1, 1), padding=(1, 1))
      (1): StraightThrough()
      (2): ScaledNeuron(
        (neuron): BurstNode()
      )
    )
    (conv2): Sequential(
      (0): Conv2d(512, 512, kernel_size=(3, 3), stride=(1, 1), padding=(1, 1))
      (1): StraightThrough()
      (2): ScaledNeuron(
        (neuron): BurstNode()
      )
    )
    (shortcut): Sequential()
  )
  (pool12): AvgPool2d(kernel_size=2, stride=2, padding=0)
  (fc13): Sequential(
    (0): Linear(in_features=512, out_features=4096, bias=True)
    (1): ScaledNeuron(
      (neuron): BurstNode()
    )
  )
  (linear): Linear(in_features=4096, out_features=38, bias=False)
)
Accuracy of BN folded ANN model 0.4151539068666141
Accuracy of converted SNN model tensor([… device='cuda:0')
------ Stage 1 - Training Hidden Layers ------
Start 1
Trained 1
Stage1, Epoch 1 takes 2m 59s
Train Accuracy: 0.095144, Loss: 289.523036
Test Accuracy: tensor([… device='cuda:0')
Saving the model.
Best Test Accuracy: 0.095501
Start 2
Trained 2
…
