E:\Users\lucas\AppData\Local\Programs\Python\Python313\python.exe E:\Projects\Python\RP\Hybrid-Coding-SNN-main\CIFAR10\Hybrid_coding\cifar10_main_vgg16.py
GPU is available
15000 (15000, 32, 32, 3)
3000 (3000, 32, 32, 3)
Accuracy of pre-trained model 0.8496666666666667
VGG16(
  (conv1): Sequential(
    (0): Conv2d(3, 64, kernel_size=(3, 3), stride=(1, 1), padding=(1, 1))
    (1): StraightThrough()
    (2): ScaledNeuron(
      (neuron): BurstNode()
    )
  )
  (conv2): Sequential(
    (0): Conv2d(64, 64, kernel_size=(3, 3), stride=(1, 1), padding=(1, 1))
    (1): StraightThrough()
    (2): ScaledNeuron(
      (neuron): BurstNode()
    )
  )
  (pool2): AvgPool2d(kernel_size=2, stride=2, padding=0)
  (conv3): Sequential(
    (0): Conv2d(64, 128, kernel_size=(3, 3), stride=(1, 1), padding=(1, 1))
    (1): StraightThrough()
    (2): ScaledNeuron(
      (neuron): BurstNode()
    )
  )
  (conv4): Sequential(
    (0): Conv2d(128, 128, kernel_size=(3, 3), stride=(1, 1), padding=(1, 1))
    (1): StraightThrough()
    (2): ScaledNeuron(
      (neuron): BurstNode()
    )
  )
  (pool4): AvgPool2d(kernel_size=2, stride=2, padding=0)
  (conv5): Sequential(
    (0): Conv2d(128, 256, kernel_size=(3, 3), stride=(1, 1), padding=(1, 1))
    (1): StraightThrough()
    (2): ScaledNeuron(
      (neuron): BurstNode()
    )
  )
  (conv6): Sequential(
    (0): Conv2d(256, 256, kernel_size=(3, 3), stride=(1, 1), padding=(1, 1))
    (1): StraightThrough()
    (2): ScaledNeuron(
      (neuron): BurstNode()
    )
  )
  (conv7): Sequential(
    (0): Conv2d(256, 256, kernel_size=(3, 3), stride=(1, 1), padding=(1, 1))
    (1): StraightThrough()
    (2): ScaledNeuron(
      (neuron): BurstNode()
    )
  )
  (pool7): AvgPool2d(kernel_size=2, stride=2, padding=0)
  (conv8): Sequential(
    (0): Conv2d(256, 512, kernel_size=(3, 3), stride=(1, 1), padding=(1, 1))
    (1): StraightThrough()
    (2): ScaledNeuron(
      (neuron): BurstNode()
    )
  )
  (conv9): Sequential(
    (0): Conv2d(512, 512, kernel_size=(3, 3), stride=(1, 1), padding=(1, 1))
    (1): StraightThrough()
    (2): ScaledNeuron(
      (neuron): BurstNode()
    )
  )
  (conv10): Sequential(
    (0): Conv2d(512, 512, kernel_size=(3, 3), stride=(1, 1), padding=(1, 1))
    (1): StraightThrough()
    (2): ScaledNeuron(
      (neuron): BurstNode()
    )
  )
  (pool10): AvgPool2d(kernel_size=2, stride=2, padding=0)
  (conv11): Sequential(
    (0): Conv2d(512, 512, kernel_size=(3, 3), stride=(1, 1), padding=(1, 1))
    (1): StraightThrough()
    (2): ScaledNeuron(
      (neuron): BurstNode()
    )
  )
  (conv12): Sequential(
    (0): Conv2d(512, 512, kernel_size=(3, 3), stride=(1, 1), padding=(1, 1))
    (1): StraightThrough()
    (2): ScaledNeuron(
      (neuron): BurstNode()
    )
  )
  (conv13): Sequential(
    (0): Conv2d(512, 512, kernel_size=(3, 3), stride=(1, 1), padding=(1, 1))
    (1): StraightThrough()
    (2): ScaledNeuron(
      (neuron): BurstNode()
    )
  )
  (pool13): AvgPool2d(kernel_size=2, stride=2, padding=0)
  (fc14): Sequential(
    (0): Linear(in_features=512, out_features=4096, bias=True)
    (1): ScaledNeuron(
      (neuron): BurstNode()
    )
  )
  (fc15): Sequential(
    (0): Linear(in_features=4096, out_features=4096, bias=True)
    (1): ScaledNeuron(
      (neuron): BurstNode()
    )
  )
  (fc16): Sequential(
    (0): Linear(in_features=4096, out_features=3, bias=True)
  )
)
Accuracy of BN folded ANN model 0.85
Accuracy of converted SNN model tensor([… device='cuda:0')
Resume the LTL-finetuned Model
Stage1 Test Accuracy: tensor([… device='cuda:0')
------ Stage 2 - Training Output Layer ------
Batch 100, Train Acc 71.5729, Train Loss 1.2894, Avg spike time 15.3129, spike probability 0.0255
Train loss 0:  1.2448625583557567
…
